…
I0716 18:17:34.711819  5440 net.cpp:332] The NetState phase (0) differed from the phase (1) specified by a rule in layer accuracy
I0716 18:17:34.711819  5440 net.cpp:58] Initializing net from parameters: 
name: "CaffeNet"
state {
  phase: TRAIN
  level: 0
  stage: ""
}
layer {
  name: "data"
  type: "Data"
  top: "data"
  top: "label"
  include {
    phase: TRAIN
  }
  transform_param {
    mirror: true
    crop_size: 100
    mean_file: "E:/1/TrainModel/imagenet_mean.binaryproto"
  }
  data_param {
    source: "E:/1/TrainModel/train_lmdb"
    batch_size: 100
    backend: LMDB
  }
}
layer {
  name: "conv1"
  type: "Convolution"
  bottom: "data"
  top: "conv1"
  param {
    lr_mult: 1
    decay_mult: 1
  }
  param {
    lr_mult: 2
    decay_mult: 0
  }
  convolution_param {
    num_output: 96
    kernel_size: 11
    stride: 4
    weight_filler {
      type: "gaussian"
      std: 0.01
    }
    bias_filler {
      type: "constant"
      value: 0
    }
  }
}
layer {
  name: "relu1"
  type: "ReLU"
  bottom: "conv1"
  top: "conv1"
}
layer {
  name: "pool1"
  type: "Pooling"
  bottom: "conv1"
  top: "pool1"
  pooling_param {
    pool: MAX
    kernel_size: 3
    stride: 2
  }
}
layer {
  name: "norm1"
  type: "LRN"
  bottom: "pool1"
  top: "norm1"
  lrn_param {
    local_size: 5
    alpha: 0.0001
    beta: 0.75
  }
}
layer {
  name: "conv2"
  type: "Convolution"
  bottom: "norm1"
  top: "conv2"
  param {
    lr_mult: 1
    decay_mult: 1
  }
  param {
    lr_mult: 2
    decay_mult: 0
  }
  convolution_param {
    num_output: 256
    pad: 2
    kernel_size: 5
    group: 2
    weight_filler {
      type: "gaussian"
      std: 0.01
    }
    bias_filler {
      type: "constant"
      value: 1
    }
  }
}
layer {
  name: "relu2"
  type: "ReLU"
  bottom: "conv2"
  top: "conv2"
}
layer {
  name: "pool2"
  type: "Pooling"
  bottom: "conv2"
  top: "pool2"
  pooling_param {
    pool: MAX
    kernel_size: 3
    stride: 2
  }
}
layer {
  name: "norm2"
  type: "LRN"
  bottom: "pool2"
  top: "norm2"
  lrn_param {
    local_size: 5
    alpha: 0.0001
    beta: 0.75
  }
}
layer {
  name: "conv3"
  type: "Convolution"
  bottom: "norm2"
  top: "conv3"
  param {
    lr_mult: 1
    decay_mult: 1
  }
  param {
    lr_mult: 2
    decay_mult: 0
  }
  convolution_param {
    num_output: 384
    pad: 1
    kernel_size: 3
    weight_filler {
      type: "gaussian"
      std: 0.01
    }
    bias_filler {
      type: "constant"
      value: 0
    }
  }
}
layer {
  name: "relu3"
  type: "ReLU"
  bottom: "conv3"
  top: "conv3"
}
layer {
  name: "conv4"
  type: "Convolution"
  bottom: "conv3"
  top: "conv4"
  param {
    lr_mult: 1
    decay_mult: 1
  }
  param {
    lr_mult: 2
    decay_mult: 0
  }
  convolution_param {
    num_output: 384
    pad: 1
    kernel_size: 3
    group: 2
    weight_filler {
      type: "gaussian"
      std: 0.01
    }
    bias_filler {
      type: "constant"
      value: 1
    }
  }
}
layer {
  name: "relu4"
  type: "ReLU"
  bottom: "conv4"
  top: "conv4"
}
layer {
  name: "conv5"
  type: "Convolution"
  bottom: "conv4"
  top: "conv5"
  param {
    lr_mult: 1
    decay_mult: 1
  }
  param {
    lr_mult: 2
    decay_mult: 0
  }
  convolution_param {
    num_output: 256
    pad: 1
    kernel_size: 3
    group: 2
    weight_filler {
      type: "gaussian"
      std: 0.01
    }
    bias_filler {
      type: "constant"
      value: 1
    }
  }
}
layer {
  name: "relu5"
  type: "ReLU"
  bottom: "conv5"
  top: "conv5"
}
layer {
  name: "pool5"
  type: "Pooling"
  bottom: "conv5"
  top: "pool5"
  pooling_param {
    pool: MAX
    kernel_size: 3
    stride: 2
  }
}
layer {
  name: "fc6"
  type: "InnerProduct"
  bottom: "pool5"
  top: "fc6"
  param {
    lr_mult: 1
    decay_mult: 1
  }
  param {
    lr_mult: 2
    decay_mult: 0
  }
  inner_product_param {
    num_output: 4096
    weight_filler {
      type: "gaussian"
      std: 0.005
    }
    bias_filler {
      type: "constant"
      value: 1
    }
  }
}
layer {
  name: "relu6"
  type: "ReLU"
  bottom: "fc6"
  top: "fc6"
}
layer {
  name: "drop6"
  type: "Dropout"
  bottom: "fc6"
  top: "fc6"
  dropout_param {
    dropout_ratio: 0.5
  }
}
layer {
  name: "fc7"
  type: "InnerProduct"
  bottom: "fc6"
  top: "fc7"
  param {
    lr_mult: 1
    decay_mult: 1
  }
  param {
    lr_mult: 2
    decay_mult: 0
  }
  inner_product_param {
    num_output: 4096
    weight_filler {
      type: "gaussian"
      std: 0.005
    }
    bias_filler {
      type: "constant"
      value: 1
    }
  }
}
layer {
  name: "relu7"
  type: "ReLU"
  bottom: "fc7"
  top: "fc7"
}
layer {
  name: "drop7"
  type: "Dropout"
  bottom: "fc7"
  top: "fc7"
  dropout_param {
    dropout_ratio: 0.5
  }
}
layer {
  name: "fc8"
  type: "InnerProduct"
  bottom: "fc7"
  top: "fc8"
  param {
    lr_mult: 1
    decay_mult: 1
  }
  param {
    lr_mult: 2
    decay_mult: 0
  }
  inner_product_param {
    num_output: 2
    weight_filler {
      type: "gaussian"
      std: 0.01
    }
    bias_filler {
      type: "constant"
      value: 0
    }
  }
}
layer {
  name: "loss"
  type: "SoftmaxWithLoss"
  bottom: "fc8"
  bottom: "label"
  top: "loss"
}
I0716 18:17:34.713325  5440 layer_factory.hpp:77] Creating layer data
I0716 18:17:34.715829  5440 common.cpp:36] System entropy source not available, using fallback algorithm to generate seed instead.
I0716 18:17:34.715829  5440 net.cpp:100] Creating Layer data
I0716 18:17:34.715829  5440 net.cpp:418] data -> data
I0716 18:17:34.715829  5440 net.cpp:418] data -> label
I0716 18:17:34.715829  5440 data_transformer.cpp:25] Loading mean file from: E:/1/TrainModel/imagenet_mean.binaryproto
I0716 18:17:34.715829 10768 common.cpp:36] System entropy source not available, using fallback algorithm to generate seed instead.
I0716 18:17:34.715829 10768 db_lmdb.cpp:40] Opened lmdb E:/1/TrainModel/train_lmdb
I0716 18:17:34.715829  5440 data_layer.cpp:41] output data size: 100,3,100,100
I0716 18:17:34.731459  5440 net.cpp:150] Setting up data
I0716 18:17:34.731459  5440 net.cpp:157] Top shape: 100 3 100 100 (3000000)
I0716 18:17:34.731459  5440 net.cpp:157] Top shape: 100 (100)
I0716 18:17:34.731459  5440 net.cpp:165] Memory required for data: 12000400
I0716 18:17:34.731459  5440 layer_factory.hpp:77] Creating layer conv1
I0716 18:17:34.731459  5440 net.cpp:100] Creating Layer conv1
I0716 18:17:34.731459  5440 net.cpp:444] conv1 <- data
I0716 18:17:34.731459  5440 net.cpp:418] conv1 -> conv1
I0716 18:17:34.731459  7828 common.cpp:36] System entropy source not available, using fallback algorithm to generate seed instead.
I0716 18:17:35.295397  5440 net.cpp:150] Setting up conv1
I0716 18:17:35.295397  5440 net.cpp:157] Top shape: 100 96 23 23 (5078400)
I0716 18:17:35.295397  5440 net.cpp:165] Memory required for data: 32314000
I0716 18:17:35.295397  5440 layer_factory.hpp:77] Creating layer relu1
I0716 18:17:35.295397  5440 net.cpp:100] Creating Layer relu1
I0716 18:17:35.295397  5440 net.cpp:444] relu1 <- conv1
I0716 18:17:35.295397  5440 net.cpp:405] relu1 -> conv1 (in-place)
I0716 18:17:35.295397  5440 net.cpp:150] Setting up relu1
I0716 18:17:35.295397  5440 net.cpp:157] Top shape: 100 96 23 23 (5078400)
I0716 18:17:35.295397  5440 net.cpp:165] Memory required for data: 52627600
I0716 18:17:35.295397  5440 layer_factory.hpp:77] Creating layer pool1
I0716 18:17:35.295397  5440 net.cpp:100] Creating Layer pool1
I0716 18:17:35.295397  5440 net.cpp:444] pool1 <- conv1
I0716 18:17:35.295397  5440 net.cpp:418] pool1 -> pool1
I0716 18:17:35.295397  5440 net.cpp:150] Setting up pool1
I0716 18:17:35.295397  5440 net.cpp:157] Top shape: 100 96 11 11 (1161600)
I0716 18:17:35.295397  5440 net.cpp:165] Memory required for data: 57274000
I0716 18:17:35.295397  5440 layer_factory.hpp:77] Creating layer norm1
I0716 18:17:35.295397  5440 net.cpp:100] Creating Layer norm1
I0716 18:17:35.295397  5440 net.cpp:444] norm1 <- pool1
I0716 18:17:35.295397  5440 net.cpp:418] norm1 -> norm1
I0716 18:17:35.295397  5440 net.cpp:150] Setting up norm1
I0716 18:17:35.295397  5440 net.cpp:157] Top shape: 100 96 11 11 (1161600)
I0716 18:17:35.295397  5440 net.cpp:165] Memory required for data: 61920400
I0716 18:17:35.295397  5440 layer_factory.hpp:77] Creating layer conv2
I0716 18:17:35.295397  5440 net.cpp:100] Creating Layer conv2
I0716 18:17:35.295397  5440 net.cpp:444] conv2 <- norm1
I0716 18:17:35.295397  5440 net.cpp:418] conv2 -> conv2
I0716 18:17:35.315037  5440 net.cpp:150] Setting up conv2
I0716 18:17:35.315037  5440 net.cpp:157] Top shape: 100 256 11 11 (3097600)
I0716 18:17:35.315037  5440 net.cpp:165] Memory required for data: 74310800
I0716 18:17:35.315538  5440 layer_factory.hpp:77] Creating layer relu2
I0716 18:17:35.315538  5440 net.cpp:100] Creating Layer relu2
I0716 18:17:35.315538  5440 net.cpp:444] relu2 <- conv2
I0716 18:17:35.315538  5440 net.cpp:405] relu2 -> conv2 (in-place)
I0716 18:17:35.315538  5440 net.cpp:150] Setting up relu2
I0716 18:17:35.315538  5440 net.cpp:157] Top shape: 100 256 11 11 (3097600)
I0716 18:17:35.315538  5440 net.cpp:165] Memory required for data: 86701200
I0716 18:17:35.315538  5440 layer_factory.hpp:77] Creating layer pool2
I0716 18:17:35.315538  5440 net.cpp:100] Creating Layer pool2
I0716 18:17:35.315538  5440 net.cpp:444] pool2 <- conv2
I0716 18:17:35.315538  5440 net.cpp:418] pool2 -> pool2
I0716 18:17:35.315538  5440 net.cpp:150] Setting up pool2
I0716 18:17:35.315538  5440 net.cpp:157] Top shape: 100 256 5 5 (640000)
I0716 18:17:35.315538  5440 net.cpp:165] Memory required for data: 89261200
I0716 18:17:35.315538  5440 layer_factory.hpp:77] Creating layer norm2
I0716 18:17:35.315538  5440 net.cpp:100] Creating Layer norm2
I0716 18:17:35.315538  5440 net.cpp:444] norm2 <- pool2
I0716 18:17:35.315538  5440 net.cpp:418] norm2 -> norm2
I0716 18:17:35.316040  5440 net.cpp:150] Setting up norm2
I0716 18:17:35.316040  5440 net.cpp:157] Top shape: 100 256 5 5 (640000)
I0716 18:17:35.316040  5440 net.cpp:165] Memory required for data: 91821200
I0716 18:17:35.316040  5440 layer_factory.hpp:77] Creating layer conv3
I0716 18:17:35.316040  5440 net.cpp:100] Creating Layer conv3
I0716 18:17:35.316040  5440 net.cpp:444] conv3 <- norm2
I0716 18:17:35.316040  5440 net.cpp:418] conv3 -> conv3
I0716 18:17:35.317543  5440 net.cpp:150] Setting up conv3
I0716 18:17:35.317543  5440 net.cpp:157] Top shape: 100 384 5 5 (960000)
I0716 18:17:35.317543  5440 net.cpp:165] Memory required for data: 95661200
I0716 18:17:35.317543  5440 layer_factory.hpp:77] Creating layer relu3
I0716 18:17:35.317543  5440 net.cpp:100] Creating Layer relu3
I0716 18:17:35.317543  5440 net.cpp:444] relu3 <- conv3
I0716 18:17:35.317543  5440 net.cpp:405] relu3 -> conv3 (in-place)
I0716 18:17:35.317543  5440 net.cpp:150] Setting up relu3
I0716 18:17:35.317543  5440 net.cpp:157] Top shape: 100 384 5 5 (960000)
I0716 18:17:35.317543  5440 net.cpp:165] Memory required for data: 99501200
I0716 18:17:35.317543  5440 layer_factory.hpp:77] Creating layer conv4
I0716 18:17:35.317543  5440 net.cpp:100] Creating Layer conv4
I0716 18:17:35.317543  5440 net.cpp:444] conv4 <- conv3
I0716 18:17:35.317543  5440 net.cpp:418] conv4 -> conv4
I0716 18:17:35.333184  5440 net.cpp:150] Setting up conv4
I0716 18:17:35.333184  5440 net.cpp:157] Top shape: 100 384 5 5 (960000)
I0716 18:17:35.333184  5440 net.cpp:165] Memory required for data: 103341200
I0716 18:17:35.333184  5440 layer_factory.hpp:77] Creating layer relu4
I0716 18:17:35.333184  5440 net.cpp:100] Creating Layer relu4
I0716 18:17:35.333184  5440 net.cpp:444] relu4 <- conv4
I0716 18:17:35.333184  5440 net.cpp:405] relu4 -> conv4 (in-place)
I0716 18:17:35.333184  5440 net.cpp:150] Setting up relu4
I0716 18:17:35.333184  5440 net.cpp:157] Top shape: 100 384 5 5 (960000)
I0716 18:17:35.333184  5440 net.cpp:165] Memory required for data: 107181200
I0716 18:17:35.333184  5440 layer_factory.hpp:77] Creating layer conv5
I0716 18:17:35.333184  5440 net.cpp:100] Creating Layer conv5
I0716 18:17:35.333184  5440 net.cpp:444] conv5 <- conv4
I0716 18:17:35.333184  5440 net.cpp:418] conv5 -> conv5
I0716 18:17:35.333184  5440 net.cpp:150] Setting up conv5
I0716 18:17:35.333184  5440 net.cpp:157] Top shape: 100 256 5 5 (640000)
I0716 18:17:35.333184  5440 net.cpp:165] Memory required for data: 109741200
I0716 18:17:35.333184  5440 layer_factory.hpp:77] Creating layer relu5
I0716 18:17:35.333184  5440 net.cpp:100] Creating Layer relu5
I0716 18:17:35.333184  5440 net.cpp:444] relu5 <- conv5
I0716 18:17:35.333184  5440 net.cpp:405] relu5 -> conv5 (in-place)
I0716 18:17:35.333184  5440 net.cpp:150] Setting up relu5
I0716 18:17:35.333184  5440 net.cpp:157] Top shape: 100 256 5 5 (640000)
I0716 18:17:35.333184  5440 net.cpp:165] Memory required for data: 112301200
I0716 18:17:35.333184  5440 layer_factory.hpp:77] Creating layer pool5
I0716 18:17:35.333184  5440 net.cpp:100] Creating Layer pool5
I0716 18:17:35.333184  5440 net.cpp:444] pool5 <- conv5
I0716 18:17:35.333184  5440 net.cpp:418] pool5 -> pool5
I0716 18:17:35.333184  5440 net.cpp:150] Setting up pool5
I0716 18:17:35.333184  5440 net.cpp:157] Top shape: 100 256 2 2 (102400)
I0716 18:17:35.333184  5440 net.cpp:165] Memory required for data: 112710800
I0716 18:17:35.333184  5440 layer_factory.hpp:77] Creating layer fc6
I0716 18:17:35.333184  5440 net.cpp:100] Creating Layer fc6
I0716 18:17:35.333184  5440 net.cpp:444] fc6 <- pool5
I0716 18:17:35.333184  5440 net.cpp:418] fc6 -> fc6
I0716 18:17:35.380051  5440 net.cpp:150] Setting up fc6
I0716 18:17:35.380051  5440 net.cpp:157] Top shape: 100 4096 (409600)
I0716 18:17:35.380051  5440 net.cpp:165] Memory required for data: 114349200
I0716 18:17:35.380051  5440 layer_factory.hpp:77] Creating layer relu6
I0716 18:17:35.380051  5440 net.cpp:100] Creating Layer relu6
I0716 18:17:35.380051  5440 net.cpp:444] relu6 <- fc6
I0716 18:17:35.380051  5440 net.cpp:405] relu6 -> fc6 (in-place)
I0716 18:17:35.380051  5440 net.cpp:150] Setting up relu6
I0716 18:17:35.380051  5440 net.cpp:157] Top shape: 100 4096 (409600)
I0716 18:17:35.380051  5440 net.cpp:165] Memory required for data: 115987600
I0716 18:17:35.380051  5440 layer_factory.hpp:77] Creating layer drop6
I0716 18:17:35.380051  5440 net.cpp:100] Creating Layer drop6
I0716 18:17:35.380051  5440 net.cpp:444] drop6 <- fc6
I0716 18:17:35.380051  5440 net.cpp:405] drop6 -> fc6 (in-place)
I0716 18:17:35.380051  5440 net.cpp:150] Setting up drop6
I0716 18:17:35.380051  5440 net.cpp:157] Top shape: 100 4096 (409600)
I0716 18:17:35.380051  5440 net.cpp:165] Memory required for data: 117626000
I0716 18:17:35.380051  5440 layer_factory.hpp:77] Creating layer fc7
I0716 18:17:35.380051  5440 net.cpp:100] Creating Layer fc7
I0716 18:17:35.380051  5440 net.cpp:444] fc7 <- fc6
I0716 18:17:35.380051  5440 net.cpp:418] fc7 -> fc7
I0716 18:17:35.545181  5440 net.cpp:150] Setting up fc7
I0716 18:17:35.545181  5440 net.cpp:157] Top shape: 100 4096 (409600)
I0716 18:17:35.545181  5440 net.cpp:165] Memory required for data: 119264400
I0716 18:17:35.545181  5440 layer_factory.hpp:77] Creating layer relu7
I0716 18:17:35.545181  5440 net.cpp:100] Creating Layer relu7
I0716 18:17:35.545181  5440 net.cpp:444] relu7 <- fc7
I0716 18:17:35.545181  5440 net.cpp:405] relu7 -> fc7 (in-place)
I0716 18:17:35.546195  5440 net.cpp:150] Setting up relu7
I0716 18:17:35.546195  5440 net.cpp:157] Top shape: 100 4096 (409600)
I0716 18:17:35.546195  5440 net.cpp:165] Memory required for data: 120902800
I0716 18:17:35.546195  5440 layer_factory.hpp:77] Creating layer drop7
I0716 18:17:35.546195  5440 net.cpp:100] Creating Layer drop7
I0716 18:17:35.546195  5440 net.cpp:444] drop7 <- fc7
I0716 18:17:35.546195  5440 net.cpp:405] drop7 -> fc7 (in-place)
I0716 18:17:35.546723  5440 net.cpp:150] Setting up drop7
I0716 18:17:35.546723  5440 net.cpp:157] Top shape: 100 4096 (409600)
I0716 18:17:35.546723  5440 net.cpp:165] Memory required for data: 122541200
I0716 18:17:35.546723  5440 layer_factory.hpp:77] Creating layer fc8
I0716 18:17:35.546723  5440 net.cpp:100] Creating Layer fc8
I0716 18:17:35.546723  5440 net.cpp:444] fc8 <- fc7
I0716 18:17:35.546723  5440 net.cpp:418] fc8 -> fc8
I0716 18:17:35.546723  5440 net.cpp:150] Setting up fc8
I0716 18:17:35.546723  5440 net.cpp:157] Top shape: 100 2 (200)
I0716 18:17:35.546723  5440 net.cpp:165] Memory required for data: 122542000
I0716 18:17:35.546723  5440 layer_factory.hpp:77] Creating layer loss
I0716 18:17:35.546723  5440 net.cpp:100] Creating Layer loss
I0716 18:17:35.546723  5440 net.cpp:444] loss <- fc8
I0716 18:17:35.546723  5440 net.cpp:444] loss <- label
I0716 18:17:35.546723  5440 net.cpp:418] loss -> loss
I0716 18:17:35.546723  5440 layer_factory.hpp:77] Creating layer loss
…
I0716 18:17:35.547722  5440 net.cpp:332] The NetState phase (1) differed from the phase (0) specified by a rule in layer data
I0716 18:17:35.547722  5440 net.cpp:58] Initializing net from parameters: 
name: "CaffeNet"
state {
  phase: TEST
}
layer {
  name: "data"
  type: "Data"
  top: "data"
  top: "label"
  include {
    phase: TEST
  }
  transform_param {
    mirror: false
    crop_size: 100
    mean_file: "E:/1/TrainModel/imagenet_mean.binaryproto"
  }
  data_param {
    source: "E:/1/TrainModel/val_lmdb"
    batch_size: 50
    backend: LMDB
  }
}
layer {
  name: "conv1"
  type: "Convolution"
  bottom: "data"
  top: "conv1"
  param {
    lr_mult: 1
    decay_mult: 1
  }
  param {
    lr_mult: 2
    decay_mult: 0
  }
  convolution_param {
    num_output: 96
    kernel_size: 11
    stride: 4
    weight_filler {
      type: "gaussian"
      std: 0.01
    }
    bias_filler {
      type: "constant"
      value: 0
    }
  }
}
layer {
  name: "relu1"
  type: "ReLU"
  bottom: "conv1"
  top: "conv1"
}
layer {
  name: "pool1"
  type: "Pooling"
  bottom: "conv1"
  top: "pool1"
  pooling_param {
    pool: MAX
    kernel_size: 3
    stride: 2
  }
}
layer {
  name: "norm1"
  type: "LRN"
  bottom: "pool1"
  top: "norm1"
  lrn_param {
    local_size: 5
    alpha: 0.0001
    beta: 0.75
  }
}
layer {
  name: "conv2"
  type: "Convolution"
  bottom: "norm1"
  top: "conv2"
  param {
    lr_mult: 1
    decay_mult: 1
  }
  param {
    lr_mult: 2
    decay_mult: 0
  }
  convolution_param {
    num_output: 256
    pad: 2
    kernel_size: 5
    group: 2
    weight_filler {
      type: "gaussian"
      std: 0.01
    }
    bias_filler {
      type: "constant"
      value: 1
    }
  }
}
layer {
  name: "relu2"
  type: "ReLU"
  bottom: "conv2"
  top: "conv2"
}
layer {
  name: "pool2"
  type: "Pooling"
  bottom: "conv2"
  top: "pool2"
  pooling_param {
    pool: MAX
    kernel_size: 3
    stride: 2
  }
}
layer {
  name: "norm2"
  type: "LRN"
  bottom: "pool2"
  top: "norm2"
  lrn_param {
    local_size: 5
    alpha: 0.0001
    beta: 0.75
  }
}
layer {
  name: "conv3"
  type: "Convolution"
  bottom: "norm2"
  top: "conv3"
  param {
    lr_mult: 1
    decay_mult: 1
  }
  param {
    lr_mult: 2
    decay_mult: 0
  }
  convolution_param {
    num_output: 384
    pad: 1
    kernel_size: 3
    weight_filler {
      type: "gaussian"
      std: 0.01
    }
    bias_filler {
      type: "constant"
      value: 0
    }
  }
}
layer {
  name: "relu3"
  type: "ReLU"
  bottom: "conv3"
  top: "conv3"
}
layer {
  name: "conv4"
  type: "Convolution"
  bottom: "conv3"
  top: "conv4"
  param {
    lr_mult: 1
    decay_mult: 1
  }
  param {
    lr_mult: 2
    decay_mult: 0
  }
  convolution_param {
    num_output: 384
    pad: 1
    kernel_size: 3
    group: 2
    weight_filler {
      type: "gaussian"
      std: 0.01
    }
    bias_filler {
      type: "constant"
      value: 1
    }
  }
}
layer {
  name: "relu4"
  type: "ReLU"
  bottom: "conv4"
  top: "conv4"
}
layer {
  name: "conv5"
  type: "Convolution"
  bottom: "conv4"
  top: "conv5"
  param {
    lr_mult: 1
    decay_mult: 1
  }
  param {
    lr_mult: 2
    decay_mult: 0
  }
  convolution_param {
    num_output: 256
    pad: 1
    kernel_size: 3
    group: 2
    weight_filler {
      type: "gaussian"
      std: 0.01
    }
    bias_filler {
      type: "constant"
      value: 1
    }
  }
}
layer {
  name: "relu5"
  type: "ReLU"
  bottom: "conv5"
  top: "conv5"
}
layer {
  name: "pool5"
  type: "Pooling"
  bottom: "conv5"
  top: "pool5"
  pooling_param {
    pool: MAX
    kernel_size: 3
    stride: 2
  }
}
layer {
  name: "fc6"
  type: "InnerProduct"
  bottom: "pool5"
  top: "fc6"
  param {
    lr_mult: 1
    decay_mult: 1
  }
  param {
    lr_mult: 2
    decay_mult: 0
  }
  inner_product_param {
    num_output: 4096
    weight_filler {
      type: "gaussian"
      std: 0.005
    }
    bias_filler {
      type: "constant"
      value: 1
    }
  }
}
layer {
  name: "relu6"
  type: "ReLU"
  bottom: "fc6"
  top: "fc6"
}
layer {
  name: "drop6"
  type: "Dropout"
  bottom: "fc6"
  top: "fc6"
  dropout_param {
    dropout_ratio: 0.5
  }
}
layer {
  name: "fc7"
  type: "InnerProduct"
  bottom: "fc6"
  top: "fc7"
  param {
    lr_mult: 1
    decay_mult: 1
  }
  param {
    lr_mult: 2
    decay_mult: 0
  }
  inner_product_param {
    num_output: 4096
    weight_filler {
      type: "gaussian"
      std: 0.005
    }
    bias_filler {
      type: "constant"
      value: 1
    }
  }
}
layer {
  name: "relu7"
  type: "ReLU"
  bottom: "fc7"
  top: "fc7"
}
layer {
  name: "drop7"
  type: "Dropout"
  bottom: "fc7"
  top: "fc7"
  dropout_param {
    dropout_ratio: 0.5
  }
}
layer {
  name: "fc8"
  type: "InnerProduct"
  bottom: "fc7"
  top: "fc8"
  param {
    lr_mult: 1
    decay_mult: 1
  }
  param {
    lr_mult: 2
    decay_mult: 0
  }
  inner_product_param {
    num_output: 2
    weight_filler {
      type: "gaussian"
      std: 0.01
    }
    bias_filler {
      type: "constant"
      value: 0
    }
  }
}
layer {
  name: "accuracy"
  type: "Accuracy"
  bottom: "fc8"
  bottom: "label"
  top: "accuracy"
  include {
    phase: TEST
  }
}
layer {
  name: "loss"
  type: "SoftmaxWithLoss"
  bottom: "fc8"
  bottom: "label"
  top: "loss"
}
I0716 18:17:35.548224  5440 layer_factory.hpp:77] Creating layer data
I0716 18:17:35.548224  5440 net.cpp:100] Creating Layer data
I0716 18:17:35.548224  5440 net.cpp:418] data -> data
I0716 18:17:35.548224  5440 net.cpp:418] data -> label
I0716 18:17:35.548224  5440 data_transformer.cpp:25] Loading mean file from: E:/1/TrainModel/imagenet_mean.binaryproto
I0716 18:17:35.550695   504 common.cpp:36] System entropy source not available, using fallback algorithm to generate seed instead.
I0716 18:17:35.551213   504 db_lmdb.cpp:40] Opened lmdb E:/1/TrainModel/val_lmdb
I0716 18:17:35.551698  5440 data_layer.cpp:41] output data size: 50,3,100,100
I0716 18:17:35.558215  5440 net.cpp:150] Setting up data
I0716 18:17:35.558215  5440 net.cpp:157] Top shape: 50 3 100 100 (1500000)
I0716 18:17:35.558215  5440 net.cpp:157] Top shape: 50 (50)
I0716 18:17:35.558215  5440 net.cpp:165] Memory required for data: 6000200
I0716 18:17:35.558215  5440 layer_factory.hpp:77] Creating layer label_data_1_split
I0716 18:17:35.558215  5440 net.cpp:100] Creating Layer label_data_1_split
I0716 18:17:35.558215  5440 net.cpp:444] label_data_1_split <- label
I0716 18:17:35.558215  5440 net.cpp:418] label_data_1_split -> label_data_1_split_0
I0716 18:17:35.558215  5440 net.cpp:418] label_data_1_split -> label_data_1_split_1
I0716 18:17:35.558215  5440 net.cpp:150] Setting up label_data_1_split
I0716 18:17:35.558215  5440 net.cpp:157] Top shape: 50 (50)
I0716 18:17:35.558215  5440 net.cpp:157] Top shape: 50 (50)
I0716 18:17:35.558215  5440 net.cpp:165] Memory required for data: 6000600
I0716 18:17:35.558215  5440 layer_factory.hpp:77] Creating layer conv1
I0716 18:17:35.558215  5440 net.cpp:100] Creating Layer conv1
I0716 18:17:35.558215  5440 net.cpp:444] conv1 <- data
I0716 18:17:35.558215  5440 net.cpp:418] conv1 -> conv1
I0716 18:17:35.558215  5440 net.cpp:150] Setting up conv1
I0716 18:17:35.558215  5440 net.cpp:157] Top shape: 50 96 23 23 (2539200)
I0716 18:17:35.558215  5440 net.cpp:165] Memory required for data: 16157400
I0716 18:17:35.558215  5440 layer_factory.hpp:77] Creating layer relu1
I0716 18:17:35.558215  5440 net.cpp:100] Creating Layer relu1
I0716 18:17:35.558215  5440 net.cpp:444] relu1 <- conv1
I0716 18:17:35.558215  5440 net.cpp:405] relu1 -> conv1 (in-place)
I0716 18:17:35.558215  5440 net.cpp:150] Setting up relu1
I0716 18:17:35.558215  5440 net.cpp:157] Top shape: 50 96 23 23 (2539200)
I0716 18:17:35.558215  5440 net.cpp:165] Memory required for data: 26314200
I0716 18:17:35.558215  5440 layer_factory.hpp:77] Creating layer pool1
I0716 18:17:35.558215  5440 net.cpp:100] Creating Layer pool1
I0716 18:17:35.558215  5440 net.cpp:444] pool1 <- conv1
I0716 18:17:35.558215  5440 net.cpp:418] pool1 -> pool1
I0716 18:17:35.558215  5440 net.cpp:150] Setting up pool1
I0716 18:17:35.558215  5440 net.cpp:157] Top shape: 50 96 11 11 (580800)
I0716 18:17:35.558215  5440 net.cpp:165] Memory required for data: 28637400
I0716 18:17:35.558215  5440 layer_factory.hpp:77] Creating layer norm1
I0716 18:17:35.558215  5440 net.cpp:100] Creating Layer norm1
I0716 18:17:35.558215  5440 net.cpp:444] norm1 <- pool1
I0716 18:17:35.558215  5440 net.cpp:418] norm1 -> norm1
I0716 18:17:35.558215  5440 net.cpp:150] Setting up norm1
I0716 18:17:35.558215  5440 net.cpp:157] Top shape: 50 96 11 11 (580800)
I0716 18:17:35.558215  5440 net.cpp:165] Memory required for data: 30960600
I0716 18:17:35.558215  5440 layer_factory.hpp:77] Creating layer conv2
I0716 18:17:35.558215  5440 net.cpp:100] Creating Layer conv2
I0716 18:17:35.558215  5440 net.cpp:444] conv2 <- norm1
I0716 18:17:35.558215  5440 net.cpp:418] conv2 -> conv2
I0716 18:17:35.558215  9680 common.cpp:36] System entropy source not available, using fallback algorithm to generate seed instead.
I0716 18:17:35.558215  5440 net.cpp:150] Setting up conv2
I0716 18:17:35.558215  5440 net.cpp:157] Top shape: 50 256 11 11 (1548800)
I0716 18:17:35.558215  5440 net.cpp:165] Memory required for data: 37155800
I0716 18:17:35.558215  5440 layer_factory.hpp:77] Creating layer relu2
I0716 18:17:35.558215  5440 net.cpp:100] Creating Layer relu2
I0716 18:17:35.558215  5440 net.cpp:444] relu2 <- conv2
I0716 18:17:35.558215  5440 net.cpp:405] relu2 -> conv2 (in-place)
I0716 18:17:35.558215  5440 net.cpp:150] Setting up relu2
I0716 18:17:35.558215  5440 net.cpp:157] Top shape: 50 256 11 11 (1548800)
I0716 18:17:35.558215  5440 net.cpp:165] Memory required for data: 43351000
I0716 18:17:35.558215  5440 layer_factory.hpp:77] Creating layer pool2
I0716 18:17:35.558215  5440 net.cpp:100] Creating Layer pool2
I0716 18:17:35.558215  5440 net.cpp:444] pool2 <- conv2
I0716 18:17:35.558215  5440 net.cpp:418] pool2 -> pool2
I0716 18:17:35.558215  5440 net.cpp:150] Setting up pool2
I0716 18:17:35.558215  5440 net.cpp:157] Top shape: 50 256 5 5 (320000)
I0716 18:17:35.558215  5440 net.cpp:165] Memory required for data: 44631000
I0716 18:17:35.558215  5440 layer_factory.hpp:77] Creating layer norm2
I0716 18:17:35.558215  5440 net.cpp:100] Creating Layer norm2
I0716 18:17:35.558215  5440 net.cpp:444] norm2 <- pool2
I0716 18:17:35.558215  5440 net.cpp:418] norm2 -> norm2
I0716 18:17:35.558215  5440 net.cpp:150] Setting up norm2
I0716 18:17:35.558215  5440 net.cpp:157] Top shape: 50 256 5 5 (320000)
I0716 18:17:35.558215  5440 net.cpp:165] Memory required for data: 45911000
I0716 18:17:35.558215  5440 layer_factory.hpp:77] Creating layer conv3
I0716 18:17:35.558215  5440 net.cpp:100] Creating Layer conv3
I0716 18:17:35.558215  5440 net.cpp:444] conv3 <- norm2
I0716 18:17:35.558215  5440 net.cpp:418] conv3 -> conv3
I0716 18:17:35.573848  5440 net.cpp:150] Setting up conv3
I0716 18:17:35.573848  5440 net.cpp:157] Top shape: 50 384 5 5 (480000)
I0716 18:17:35.573848  5440 net.cpp:165] Memory required for data: 47831000
I0716 18:17:35.573848  5440 layer_factory.hpp:77] Creating layer relu3
I0716 18:17:35.573848  5440 net.cpp:100] Creating Layer relu3
I0716 18:17:35.573848  5440 net.cpp:444] relu3 <- conv3
I0716 18:17:35.573848  5440 net.cpp:405] relu3 -> conv3 (in-place)
I0716 18:17:35.573848  5440 net.cpp:150] Setting up relu3
I0716 18:17:35.573848  5440 net.cpp:157] Top shape: 50 384 5 5 (480000)
I0716 18:17:35.573848  5440 net.cpp:165] Memory required for data: 49751000
I0716 18:17:35.573848  5440 layer_factory.hpp:77] Creating layer conv4
I0716 18:17:35.573848  5440 net.cpp:100] Creating Layer conv4
I0716 18:17:35.573848  5440 net.cpp:444] conv4 <- conv3
I0716 18:17:35.573848  5440 net.cpp:418] conv4 -> conv4
I0716 18:17:35.589484  5440 net.cpp:150] Setting up conv4
I0716 18:17:35.589484  5440 net.cpp:157] Top shape: 50 384 5 5 (480000)
I0716 18:17:35.589484  5440 net.cpp:165] Memory required for data: 51671000
I0716 18:17:35.589484  5440 layer_factory.hpp:77] Creating layer relu4
I0716 18:17:35.589484  5440 net.cpp:100] Creating Layer relu4
I0716 18:17:35.589484  5440 net.cpp:444] relu4 <- conv4
I0716 18:17:35.589484  5440 net.cpp:405] relu4 -> conv4 (in-place)
I0716 18:17:35.589484  5440 net.cpp:150] Setting up relu4
I0716 18:17:35.589484  5440 net.cpp:157] Top shape: 50 384 5 5 (480000)
I0716 18:17:35.589484  5440 net.cpp:165] Memory required for data: 53591000
I0716 18:17:35.589484  5440 layer_factory.hpp:77] Creating layer conv5
I0716 18:17:35.589484  5440 net.cpp:100] Creating Layer conv5
I0716 18:17:35.589484  5440 net.cpp:444] conv5 <- conv4
I0716 18:17:35.589484  5440 net.cpp:418] conv5 -> conv5
I0716 18:17:35.589484  5440 net.cpp:150] Setting up conv5
I0716 18:17:35.589484  5440 net.cpp:157] Top shape: 50 256 5 5 (320000)
I0716 18:17:35.589484  5440 net.cpp:165] Memory required for data: 54871000
I0716 18:17:35.589484  5440 layer_factory.hpp:77] Creating layer relu5
I0716 18:17:35.589484  5440 net.cpp:100] Creating Layer relu5
I0716 18:17:35.589484  5440 net.cpp:444] relu5 <- conv5
I0716 18:17:35.589484  5440 net.cpp:405] relu5 -> conv5 (in-place)
I0716 18:17:35.589484  5440 net.cpp:150] Setting up relu5
I0716 18:17:35.589484  5440 net.cpp:157] Top shape: 50 256 5 5 (320000)
I0716 18:17:35.589484  5440 net.cpp:165] Memory required for data: 56151000
I0716 18:17:35.589484  5440 layer_factory.hpp:77] Creating layer pool5
I0716 18:17:35.589484  5440 net.cpp:100] Creating Layer pool5
I0716 18:17:35.589484  5440 net.cpp:444] pool5 <- conv5
I0716 18:17:35.589484  5440 net.cpp:418] pool5 -> pool5
I0716 18:17:35.589484  5440 net.cpp:150] Setting up pool5
I0716 18:17:35.589484  5440 net.cpp:157] Top shape: 50 256 2 2 (51200)
I0716 18:17:35.589484  5440 net.cpp:165] Memory required for data: 56355800
I0716 18:17:35.589484  5440 layer_factory.hpp:77] Creating layer fc6
I0716 18:17:35.589484  5440 net.cpp:100] Creating Layer fc6
I0716 18:17:35.589484  5440 net.cpp:444] fc6 <- pool5
I0716 18:17:35.589484  5440 net.cpp:418] fc6 -> fc6
I0716 18:17:35.636385  5440 net.cpp:150] Setting up fc6
I0716 18:17:35.636385  5440 net.cpp:157] Top shape: 50 4096 (204800)
I0716 18:17:35.636385  5440 net.cpp:165] Memory required for data: 57175000
I0716 18:17:35.636385  5440 layer_factory.hpp:77] Creating layer relu6
I0716 18:17:35.636385  5440 net.cpp:100] Creating Layer relu6
I0716 18:17:35.636385  5440 net.cpp:444] relu6 <- fc6
I0716 18:17:35.636385  5440 net.cpp:405] relu6 -> fc6 (in-place)
I0716 18:17:35.636385  5440 net.cpp:150] Setting up relu6
I0716 18:17:35.636385  5440 net.cpp:157] Top shape: 50 4096 (204800)
I0716 18:17:35.636385  5440 net.cpp:165] Memory required for data: 57994200
I0716 18:17:35.636385  5440 layer_factory.hpp:77] Creating layer drop6
I0716 18:17:35.636385  5440 net.cpp:100] Creating Layer drop6
I0716 18:17:35.636385  5440 net.cpp:444] drop6 <- fc6
I0716 18:17:35.636385  5440 net.cpp:405] drop6 -> fc6 (in-place)
I0716 18:17:35.636385  5440 net.cpp:150] Setting up drop6
I0716 18:17:35.636385  5440 net.cpp:157] Top shape: 50 4096 (204800)
I0716 18:17:35.636385  5440 net.cpp:165] Memory required for data: 58813400
I0716 18:17:35.636385  5440 layer_factory.hpp:77] Creating layer fc7
I0716 18:17:35.636385  5440 net.cpp:100] Creating Layer fc7
I0716 18:17:35.636385  5440 net.cpp:444] fc7 <- fc6
I0716 18:17:35.636385  5440 net.cpp:418] fc7 -> fc7
I0716 18:17:35.858634  5440 net.cpp:150] Setting up fc7
I0716 18:17:35.858634  5440 net.cpp:157] Top shape: 50 4096 (204800)
I0716 18:17:35.858634  5440 net.cpp:165] Memory required for data: 59632600
I0716 18:17:35.858634  5440 layer_factory.hpp:77] Creating layer relu7
I0716 18:17:35.858634  5440 net.cpp:100] Creating Layer relu7
I0716 18:17:35.858634  5440 net.cpp:444] relu7 <- fc7
I0716 18:17:35.858634  5440 net.cpp:405] relu7 -> fc7 (in-place)
I0716 18:17:35.858634  5440 net.cpp:150] Setting up relu7
I0716 18:17:35.858634  5440 net.cpp:157] Top shape: 50 4096 (204800)
I0716 18:17:35.858634  5440 net.cpp:165] Memory required for data: 60451800
I0716 18:17:35.858634  5440 layer_factory.hpp:77] Creating layer drop7
I0716 18:17:35.858634  5440 net.cpp:100] Creating Layer drop7
I0716 18:17:35.858634  5440 net.cpp:444] drop7 <- fc7
I0716 18:17:35.858634  5440 net.cpp:405] drop7 -> fc7 (in-place)
I0716 18:17:35.858634  5440 net.cpp:150] Setting up drop7
I0716 18:17:35.858634  5440 net.cpp:157] Top shape: 50 4096 (204800)
I0716 18:17:35.858634  5440 net.cpp:165] Memory required for data: 61271000
I0716 18:17:35.858634  5440 layer_factory.hpp:77] Creating layer fc8
I0716 18:17:35.858634  5440 net.cpp:100] Creating Layer fc8
I0716 18:17:35.858634  5440 net.cpp:444] fc8 <- fc7
I0716 18:17:35.858634  5440 net.cpp:418] fc8 -> fc8
I0716 18:17:35.858634  5440 net.cpp:150] Setting up fc8
I0716 18:17:35.858634  5440 net.cpp:157] Top shape: 50 2 (100)
I0716 18:17:35.858634  5440 net.cpp:165] Memory required for data: 61271400
I0716 18:17:35.858634  5440 layer_factory.hpp:77] Creating layer fc8_fc8_0_split
I0716 18:17:35.858634  5440 net.cpp:100] Creating Layer fc8_fc8_0_split
I0716 18:17:35.858634  5440 net.cpp:444] fc8_fc8_0_split <- fc8
I0716 18:17:35.858634  5440 net.cpp:418] fc8_fc8_0_split -> fc8_fc8_0_split_0
I0716 18:17:35.858634  5440 net.cpp:418] fc8_fc8_0_split -> fc8_fc8_0_split_1
I0716 18:17:35.858634  5440 net.cpp:150] Setting up fc8_fc8_0_split
I0716 18:17:35.858634  5440 net.cpp:157] Top shape: 50 2 (100)
I0716 18:17:35.858634  5440 net.cpp:157] Top shape: 50 2 (100)
I0716 18:17:35.858634  5440 net.cpp:165] Memory required for data: 61272200
I0716 18:17:35.858634  5440 layer_factory.hpp:77] Creating layer accuracy
I0716 18:17:35.858634  5440 net.cpp:100] Creating Layer accuracy
I0716 18:17:35.858634  5440 net.cpp:444] accuracy <- fc8_fc8_0_split_0
I0716 18:17:35.858634  5440 net.cpp:444] accuracy <- label_data_1_split_0
I0716 18:17:35.858634  5440 net.cpp:418] accuracy -> accuracy
…
